weights/galaxy-flow-state_dict.pt (torch, 283607 bytes, 62 tensors)

_transform._transforms.0._shift f4 [6]
-0.0 -0.0 -0.0 -0.0 -0.0 -0.0
00000000: 0000 0080 0000 0080 0000 0080 0000 0080
00000010: 0000 0080 0000 0080

_transform._transforms.0._scale f4 [6]
20.0 20.0 20.0 20.0 20.0 20.0
00000000: 0000 a041 0000 a041 0000 a041 0000 a041
00000010: 0000 a041 0000 a041

_transform._transforms.1._transforms.0._transforms.0.autoregressive_net.initial_layer.weight f4 [50, 6]
-0.014390086 -0.31787583 0.38279706 -0.341338 -0.12665151 -0.25658673 -0.1534619 -0.29668
0.35628408 -0.20036064 0.24536291 0.005590815 -0.24416542 -0.26054412 0.020427005 0.07657566
-0.21696669 0.0062613003 -0.066796094 -0.028261725 0.20672055 0.30768958 -0.22850451 -0.2981704
0.20218132 -0.24577498 0.013696417 -0.11700699 0.36405772 0.0029681511 0.07092608 0.21728526
0.005803636 -0.3451557 -0.08191297 -0.049875878 -0.08938583 0.12141973 -0.31478968 -0.021373423
-0.3942532 -0.34268707 -0.13120247 -0.107497424 0.065846376 -0.23622349 0.11711181 -0.061258502
-0.22923091 0.47772884 -0.22221753 -0.04189335 -0.14557397 -0.22811124 -0.15735881 0.37014997
0.3691075 0.10661041 -0.014529145 -0.20300588 -0.021805502 -0.1644045 -0.109651156 0.3150993
0.096925564 -0.1277673 0.12122371 0.07480235 0.28256935 -0.12927744 -0.16866091 0.35155413
0.015288928 0.10537868 -0.17624785 -0.3200291 -0.17688037 -0.05748029 -0.361415 0.057333164
0.20245959 0.012941169 0.24585362 0.08942618 0.14955859 -0.39137563 -0.26218855 -0.4139277
0.25910932 -0.21380533 0.014617461 0.16830038 0.23853673 0.28753066 0.2823812 -0.14228219
0.15414175 0.1939677 -0.31659 0.22541976 -0.21643923 -0.27633 -0.1110897 0.76673806
-0.1414336 0.09348272 -0.25580874 -0.17516126 -0.31248182 -0.041165303 0.019927058 -0.32660574
0.29169255 -0.40622163 0.027734237 -0.18416703 0.035893973 0.2733763 0.42878696 -0.30048123
-0.007829952 -0.34734043 -0.0535497 -0.40492216 0.048365936 0.0515673 0.051788297 -0.2897805
0.39566424 0.26298016 -0.2873303 -0.34192201 -0.06338607 0.25187996 0.10106196 0.14625403
0.06850877 -0.24324045 -0.17499267 0.2020754 0.17233074 -0.24940898 0.34810948 -0.17531495
0.174003 0.2763063 -0.0040597375 -0.049809214 -0.29007718 -0.14112478 -0.014097805 -0.10247463
-0.21728307 0.3089473 -0.1020429 -0.3601648 0.01873237 -0.063132 0.3541036 -0.057303388
-0.1981897 0.26662922 -0.069908306 -0.35040957 -0.16677155 -0.30659795 -0.27426827 -0.14190531
0.16449478 -0.5875028 -0.31852978 -0.3287976 -0.29749712 -0.22509067 -0.5071451 0.120860755
-0.03313043 0.24296682 0.2376255 0.3274331 -0.06892422 -0.021763537 -0.37639913 0.07450045
0.3161306 -0.38790303 -0.006233971 -0.17489891 0.3957131 -0.19676068 -0.26949263 -0.14097168
0.37308437 0.25999874 -0.18606597 -0.26019987 -0.035666335 -0.0011333568 0.22110865 0.17467527
0.50831074 -0.6471222 0.28161436 -0.21489689 -0.14210057 -0.23883231 -0.13669272 0.2839257
-0.21106285 -0.19064368 -0.02615566 -0.3495023 -0.023264816 -0.030051477 -0.28044888 -0.17373098
-0.07740379 -0.2622236 0.22628973 -0.15083414 0.07633174 0.15119539 -0.19766884 0.110096574
-0.2382001 -0.17845139 -0.23424897 -0.35054117 -0.3403343 0.12775946 -0.4559234 0.1341377
-0.22719747 0.109297544 -0.3265539 0.14666305 -0.25070077 0.17749427 0.29176545 -0.17048709
0.1319647 -0.20910995 0.0045767897 0.02412481 0.0012995546 -0.08694951 0.019468943 -0.17953408
0.39893934 -0.28452072 0.17409934 0.3163604 -0.23548649 0.15882175 -0.3013986 -0.18078648
00000000: 65c4 6bbc 9fc0 a2be fafd c33e dbc3 aebe
00000010: efb0 01be 565f 83be 1e25 1dbe 71e6 97be
00000020: de6a b63e 572b 4dbe 6a40 7b3e 2833 b73b
00000030: 8006 7abe 0a66 85be 8956 a73c b3d3 9c3d
00000040: 842c 5ebe 982b cd3b 64cc 88bd 2285 e7bc
00000050: 8dae 533e 7d89 9d3e 16fd 69be caa9 98be
00000060: 9f08 4f3e 70ac 7bbe f066 603c 5ca1 efbd
00000070: c665 ba3e 5085 423b b141 913d 0780 5e3e
00000080: 6d2c be3b 3fb8 b0be fdc1 a7bd a64a 4cbd
00000090: eb0f b7bd e8aa f83d 1d2c a1be 5117 afbc
000000a0: 8edb c9be ae74 afbe f159 06be 9c27 dcbd
000000b0: 77da 863d 92e4 71be 51d8 ef3d 32ea 7abd
000000c0: 82bb 6abe e098 f43e fe8c 63be 5d98 2bbd
000000d0: 5811 15be fe95 69be ab22 21be 4c84 bd3e
000000e0: a9fb bc3e 8f56 da3d a70b 6ebc c6e0 4fbe
000000f0: 74a1 b2bc a759 28be c990 e0bd b254 a13e
00000100: e980 c63d 6ed5 02be 2344 f83d f931 993d
00000110: eeac 903e 4e61 04be 72b5 2cbe e7fe b33e
00000120: 697e 7a3c c7d0 d73d 517a 34be dbda a3be
00000130: 2120 35be 7470 6bbd 630b b9be 2ed6 6a3d
00000140: 9151 4f3e 3207 543c 0dc1 7b3e 1325 b73d
00000150: e325 193e 6362 c8be 943d 86be 55ee d3be
00000160: faa9 843e c9ef 5abe 137e 6f3c ef56 2c3e
00000170: f942 743e 3837 933e 4594 903e 6cb2 11be
00000180: 56d7 1d3e 789f 463e 1618 a2be 70d4 663e
00000190: 3fa2 5dbe 207b 8dbe ff82 e3bd f248 443f
000001a0: f8d3 10be de73 bf3d 5df9 82be 795d 33be
000001b0: 9efd 9fbe f39c 28bd 123e a33c de38 a7be
000001c0: ba58 953e 48fc cfbe e932 e33c 4896 3cbe
000001d0: 8f05 133d faf7 8b3e f789 db3e add8 99be
000001e0: 3349 00bc 9bd6 b1be ee56 5bbd f551 cfbe
000001f0: 5c1b 463d 3c38 533d f71f 543d 1c5e 94be
00000200: 8194 ca3e 56a5 863e f51c 93be 6710 afbe
00000210: 8ed0 81bd 69f6 803e 93f9 ce3d 9ec3 153e
00000220: 534e 8c3d 0614 79be 4731 33be dbec 4e3e
00000230: 7877 303e 1165 7fbe 683b b23e c385 33be
00000240: d82d 323e 0578 8d3e 8c07 85bb bf04 4cbd
00000250: ff84 94be 0483 10be 7bfa 66bc 38de d1bd
00000260: 747f 5ebe 572e 9e3e defb d0bd 8567 b8be
00000270: a174 993c 5a4b 81bd 114d b53e f5b6 6abd
00000280: 3ef2 4abe a083 883e 162c 8fbd e268 b3be
00000290: 29c6 2abe 68fa 9cbe e46c 8cbe a04f 11be
000002a0: 5271 283e 9566 16bf 5616 a3be 2958 a8be
000002b0: 8b51 98be 2b7e 66be 43d4 01bf d885 f73d
000002c0: c6b3 07bd 4bcc 783e 1954 733e 50a5 a73e
000002d0: 2428 8dbd 7249 b2bc 63b7 c0be b193 983d
000002e0: dfdb a13e 3a9b c6be 5746 ccbb b318 33be
000002f0: e89a ca3e a27b 49be f0fa 89be e15a 10be
00000300: ea04 bf3e 8e1e 853e 1488 3ebe eb38 85be
00000310: dd16 12bd 258d 94ba 4e6a 623e 13de 323e
00000320: a720 023f cda9 25bf c22f 903e ee0d 5cbe
00000330: d082 11be 7590 74be 2df9 0bbe b65e 913e
00000340: dc20 58be 1938 43be 6544 d6bc f7f1 b2be
00000350: db95 bebc 842e f6bc ff96 8fbe 89e6 31be
00000360: e185 9ebd 2c42 86be 7fb8 673e 4474 1abe
00000370: d153 9c3d f7d2 1a3e b369 4abe 507a e13d
00000380: baea 73be f6bb 36be f6de 6fbe 227a b3be
00000390: 4c40 aebe 60d3 023e cb6e e9be 655b 093e
000003a0: 74a6 68be 64d7 df3d 1332 a7be d72e 163e
000003b0: da5b 80be 0fc1 353e 4862 953e 2b94 2ebe
000003c0: c121 073e eb20 56be e5f8 953b 65a1 c53c
000003d0: d155 aa3a 9612 b2bd 557d 9f3c c8d7 37be
000003e0: c741 cc3e b3ac 91be 1947 323e fef9 a13e
000003f0: 5f23 71be 2ba2 223e eb50 9abe 1720 39be

_transform._transforms.1._transforms.0._transforms.0.autoregressive_net.initial_layer.bias f4 [50]
0.10474183 0.1715607 0.058791075 0.025529988 -0.55157316 -0.39421824 1.1583225 -0.22292507
-0.7232369 -0.24016075 0.40081114 -0.4009628 -1.2200407 -0.02387921 -0.038649026 -0.16523224
0.13578194 -0.68043077 0.083075285 -0.09793661 -0.2921796 -0.108214706 -0.39505383 -0.022711655
-0.21687469 -0.15178743 1.3791398 0.2684754 0.7507725 0.6412141 0.4892272 0.6352244
-0.31993407 -0.60708326 0.12136945 0.5528244 -0.7314547 0.4214111 0.14318483 -0.083688565
-0.16146904 0.88254094 -0.63631916 0.2579663 -0.14753416 -0.29330537 -0.10253077 0.48034647
0.1855043 -0.43820634
00000000: e282 d63d 9cad 2f3e e9ce 703d 4424 d13c
00000010: e633 0dbf f9d6 c9be e943 943f 7846 64be
00000020: 0e26 39bf b3ec 75be 1e37 cd3e ff4a cdbe
00000030: 4b2a 9cbf 559e c3bc 714e 1ebd a432 29be
00000040: 6c0a 0b3e b630 2ebf 6023 aa3d fd92 c8bd
00000050: 9198 95be ac9f ddbd 7f44 cabe cb0d babc
00000060: 6614 5ebe 2a6e 1bbe a787 b03f 9c75 893e
00000070: a032 403f 9b26 243f fd7b fa3e 119e 223f
00000080: 66ce a3be cf69 1bbf 8c90 f83d e685 0d3f
00000090: 9d40 3bbf 32c3 d73e 0b9f 123e e964 abbd
000000a0: 2458 25be 34ee 613f d0e5 22bf 2914 843e
000000b0: 3213 17be 1f2c 96be a7fb d1bd f9ef f53e
000000c0: d7f4 3d3e 955c e0be

_transform._transforms.1._transforms.0._transforms.0.autoregressive_net.initial_layer.mask f4 [50, 6]
1.0 0.0 0.0 0.0 0.0 0.0 1.0 1.0
0.0 0.0 0.0 0.0 1.0 1.0 1.0 0.0
0.0 0.0 1.0 1.0 1.0 1.0 0.0 0.0
1.0 1.0 1.0 1.0 1.0 0.0 1.0 0.0
0.0 0.0 0.0 0.0 1.0 1.0 0.0 0.0
0.0 0.0 1.0 1.0 1.0 0.0 0.0 0.0
1.0 1.0 1.0 1.0 0.0 0.0 1.0 1.0
1.0 1.0 1.0 0.0 1.0 0.0 0.0 0.0
0.0 0.0 1.0 1.0 0.0 0.0 0.0 0.0
1.0 1.0 1.0 0.0 0.0 0.0 1.0 1.0
1.0 1.0 0.0 0.0 1.0 1.0 1.0 1.0
1.0 0.0 1.0 0.0 0.0 0.0 0.0 0.0
1.0 1.0 0.0 0.0 0.0 0.0 1.0 1.0
1.0 0.0 0.0 0.0 1.0 1.0 1.0 1.0
0.0 0.0 1.0 1.0 1.0 1.0 1.0 0.0
1.0 0.0 0.0 0.0 0.0 0.0 1.0 1.0
0.0 0.0 0.0 0.0 1.0 1.0 1.0 0.0
0.0 0.0 1.0 1.0 1.0 1.0 0.0 0.0
1.0 1.0 1.0 1.0 1.0 0.0 1.0 0.0
0.0 0.0 0.0 0.0 1.0 1.0 0.0 0.0
0.0 0.0 1.0 1.0 1.0 0.0 0.0 0.0
1.0 1.0 1.0 1.0 0.0 0.0 1.0 1.0
1.0 1.0 1.0 0.0 1.0 0.0 0.0 0.0
0.0 0.0 1.0 1.0 0.0 0.0 0.0 0.0
1.0 1.0 1.0 0.0 0.0 0.0 1.0 1.0
1.0 1.0 0.0 0.0 1.0 1.0 1.0 1.0
1.0 0.0 1.0 0.0 0.0 0.0 0.0 0.0
1.0 1.0 0.0 0.0 0.0 0.0 1.0 1.0
1.0 0.0 0.0 0.0 1.0 1.0 1.0 1.0
0.0 0.0 1.0 1.0 1.0 1.0 1.0 0.0
1.0 0.0 0.0 0.0 0.0 0.0 1.0 1.0
0.0 0.0 0.0 0.0 1.0 1.0 1.0 0.0
00000000: 0000 803f 0000 0000 0000 0000 0000 0000
00000010: 0000 0000 0000 0000 0000 803f 0000 803f
00000020: 0000 0000 0000 0000 0000 0000 0000 0000
00000030: 0000 803f 0000 803f 0000 803f 0000 0000
00000040: 0000 0000 0000 0000 0000 803f 0000 803f
00000050: 0000 803f 0000 803f 0000 0000 0000 0000
00000060: 0000 803f 0000 803f 0000 803f 0000 803f
00000070: 0000 803f 0000 0000 0000 803f 0000 0000
00000080: 0000 0000 0000 0000 0000 0000 0000 0000
00000090: 0000 803f 0000 803f 0000 0000 0000 0000
000000a0: 0000 0000 0000 0000 0000 803f 0000 803f
000000b0: 0000 803f 0000 0000 0000 0000 0000 0000
000000c0: 0000 803f 0000 803f 0000 803f 0000 803f
000000d0: 0000 0000 0000 0000 0000 803f 0000 803f
000000e0: 0000 803f 0000 803f 0000 803f 0000 0000
000000f0: 0000 803f 0000 0000 0000 0000 0000 0000
00000100: 0000 0000 0000 0000 0000 803f 0000 803f
00000110: 0000 0000 0000 0000 0000 0000 0000 0000
00000120: 0000 803f 0000 803f 0000 803f 0000 0000
00000130: 0000 0000 0000 0000 0000 803f 0000 803f
00000140: 0000 803f 0000 803f 0000 0000 0000 0000
00000150: 0000 803f 0000 803f 0000 803f 0000 803f
00000160: 0000 803f 0000 0000 0000 803f 0000 0000
00000170: 0000 0000 0000 0000 0000 0000 0000 0000
00000180: 0000 803f 0000 803f 0000 0000 0000 0000
00000190: 0000 0000 0000 0000 0000 803f 0000 803f
000001a0: 0000 803f 0000 0000 0000 0000 0000 0000
000001b0: 0000 803f 0000 803f 0000 803f 0000 803f
000001c0: 0000 0000 0000 0000 0000 803f 0000 803f
000001d0: 0000 803f 0000 803f 0000 803f 0000 0000
000001e0: 0000 803f 0000 0000 0000 0000 0000 0000
000001f0: 0000 0000 0000 0000 0000 803f 0000 803f
00000200: 0000 0000 0000 0000 0000 0000 0000 0000
00000210: 0000 803f 0000 803f 0000 803f 0000 0000
00000220: 0000 0000 0000 0000 0000 803f 0000 803f
00000230: 0000 803f 0000 803f 0000 0000 0000 0000
00000240: 0000 803f 0000 803f 0000 803f 0000 803f
00000250: 0000 803f 0000 0000 0000 803f 0000 0000
00000260: 0000 0000 0000 0000 0000 0000 0000 0000
00000270: 0000 803f 0000 803f 0000 0000 0000 0000
00000280: 0000 0000 0000 0000 0000 803f 0000 803f
00000290: 0000 803f 0000 0000 0000 0000 0000 0000
000002a0: 0000 803f 0000 803f 0000 803f 0000 803f
000002b0: 0000 0000 0000 0000 0000 803f 0000 803f
000002c0: 0000 803f 0000 803f 0000 803f 0000 0000
000002d0: 0000 803f 0000 0000 0000 0000 0000 0000
000002e0: 0000 0000 0000 0000 0000 803f 0000 803f
000002f0: 0000 0000 0000 0000 0000 0000 0000 0000
00000300: 0000 803f 0000 803f 0000 803f 0000 0000
00000310: 0000 0000 0000 0000 0000 803f 0000 803f
00000320: 0000 803f 0000 803f 0000 0000 0000 0000
00000330: 0000 803f 0000 803f 0000 803f 0000 803f
00000340: 0000 803f 0000 0000 0000 803f 0000 0000
00000350: 0000 0000 0000 0000 0000 0000 0000 0000
00000360: 0000 803f 0000 803f 0000 0000 0000 0000
00000370: 0000 0000 0000 0000 0000 803f 0000 803f
00000380: 0000 803f 0000 0000 0000 0000 0000 0000
00000390: 0000 803f 0000 803f 0000 803f 0000 803f
000003a0: 0000 0000 0000 0000 0000 803f 0000 803f
000003b0: 0000 803f 0000 803f 0000 803f 0000 0000
000003c0: 0000 803f 0000 0000 0000 0000 0000 0000
000003d0: 0000 0000 0000 0000 0000 803f 0000 803f
000003e0: 0000 0000 0000 0000 0000 0000 0000 0000
000003f0: 0000 803f 0000 803f 0000 803f 0000 0000

_transform._transforms.1._transforms.0._transforms.0.autoregressive_net.blocks.0.linear.weight f4 [50, 50]
-0.23433179 -0.07396176 0.030598596 -0.11035684 0.02718005 0.05484397 0.02714918 0.12808092
0.01255258 0.0113650495 -0.06439178 -0.112515464 -0.067924336 -0.095055744 0.11846151 0.14423981
-0.076034926 -0.0898261 0.011048628 -0.0614071 -0.14286809 0.06109043 0.018393256 -0.0897153
0.038864773 -0.121675275 0.048176344 0.07349635 -0.12204585 0.11281574 0.080016345 0.0051591285
-0.08716174 0.13837458 0.11697115 -0.1873559 0.13858372 0.0074271853 0.006679079 -0.028364308
0.05567964 -0.14042597 -0.07059741 0.117073886 -0.13905269 0.03914103 -0.13854173 -0.11207364
0.13239576 0.022650814 -0.05200079 -0.096397676 -0.022485968 -0.101387724 -0.090974584 -0.16159746
0.17700881 -0.1343314 -0.12180219 -0.017958907 -0.16428457 0.16469081 0.09518342 -0.09141141
0.097108774 -0.10442994 0.15613753 -0.10734766 0.0541409 -0.009537478 -0.13338816 0.03428923
-0.032386802 0.12081295 0.009697754 -0.082207985 0.118073046 0.13403733 0.13730855 0.12716135
-0.06318257 0.13852291 0.08222692 -0.067355745 -0.11851601 -0.12440248 -0.15027694 -0.11402355
-0.10598178 0.04225753 -0.01388304 0.18558681 -0.11309696 0.048273806 -0.13638388 -0.05044314
-0.0080366265 -0.08852339 0.012796357 -0.11134451 0.15698212 -0.1256948 0.043714825 0.022086635
-0.033903785 -0.05517016 0.033542592 -0.06321804 0.050888106 0.06323622 0.032244265 -0.008702976
-0.042351704 -0.006180937 0.035803076 -0.08435586 -0.1250553 -0.12798244 -0.09277697 0.08011757
0.066212304 0.110651806 0.061869927 -0.026617894 -0.1036873 0.12230269 -0.077535555 -0.013763622
-0.052134138 0.10913497 -0.1827616 -0.004757311 0.042894483 -0.12243721 -0.13178512 0.100438625
0.13640359 -0.05661471 -0.055936594 0.060056597 0.0055137314 0.1479248 0.040514257 -0.11276758
-0.043051086 -0.015665442 -0.091205195 0.07166028 0.09667128 0.05838234 -0.16849194 0.17622088
0.051860597 0.1122595 -0.06701919 -0.15870705 0.06640344 0.103474155 -0.058575727 0.00020972273
0.024439063 -0.09613828 -0.18206057 0.16104002 0.006140459 0.15821405 -0.09224457 0.0077986415
-0.11058011 0.102751136 -0.2546788 0.08652707 -0.061630715 2.0380661e-05 -0.008351955 -0.23718485
0.01655203 0.21694855 0.0049015363 -0.048771847 0.068627596 0.20299129 -0.16278864 0.021455055
-0.008511708 -0.20384464 -0.067891814 0.024142789 0.012634215 -0.03308096 -0.099043705 0.048542075
-0.045605797 0.07171443 -0.03767809 0.14037797 -0.014073434 0.013603529 -0.13931103 -0.1028989
-0.024839668 0.083299674 0.041327037 -0.054656338 -0.0068202293 -0.07897735 -0.12727262 -0.1478326
-0.08362844 -0.15817598 0.04086328 0.14999117 -0.0012127141 0.02535169 -0.038800415 -0.12946525
0.07419363 -0.016346892 0.040096045 -0.1409368 0.021575648 -0.0037167824 0.066665016 -0.1966109
0.05240084 -0.15334636 0.048606154 0.13280857 -0.1044169 0.12071495 0.12776142 0.06769499
0.11438173 0.0061667906 -0.2108424 0.16098426 0.059668265 0.09277525 0.16161191 0.17247334
0.0018032549 -0.086880326 -0.14887045 0.047446307 0.061898038 -0.017586969 -0.03607359 -0.00029868065
-0.061864037 0.14085624 -0.04870039 -0.036331747 0.05302917 -0.11543266 0.12910159 -0.017257249
00000000: acf4 6fbe 4379 97bd e8a9 fa3c c402 e2bd
00000010: b2a8 de3c 12a4 603d f567 de3c a527 033e
00000020: 56a9 4d3c 7934 3a3c d6df 83bd 826e e6bd
00000030: ea1b 8bbd 96ac c2bd f39b f23d 9ab3 133e
00000040: 33b8 9bbd bff6 b7bd 4e05 353c 0386 7bbd
00000050: 034c 12be f539 7a3d 74ad 963c a8bc b7bd
00000060: ab30 1f3d e330 f9bd 8f54 453d 4185 963d
00000070: 2df3 f9bd f00b e73d 9cdf a33d e80d a93b
00000080: db81 b2bd 11b2 0d3e 928e ef3d 3ada 3fbe
00000090: e4e8 0d3e bf5f f33b 2ddc da3b 445c e8bc
000000a0: 5610 643d d3cb 0fbe 6095 90bd 6fc4 ef3d
000000b0: d463 0ebe 5852 203d e2dd 0dbe dd86 e5bd
000000c0: c192 073e 338e b93c c8fe 54bd 256c c5bd
000000d0: 7e34 b8bc 5ea4 cfbd e250 babd ce79 25be
000000e0: cc41 353e 2c8e 09be 6d73 f9bd 8f1e 93bc
000000f0: 373a 28be b5a4 283e 86ef c23d e835 bbbd
00000100: f7e0 c63d 5ddf d5bd 84e2 1f3e 17d9 dbbd
00000110: d9c2 5d3d 1543 1cbc e896 08be dd72 0c3d
00000120: 06a8 04bd c86c f73d 54e3 1e3c a95c a8bd
00000130: 48d0 f13d 1541 093e 9d9a 0c3e 9636 023e
00000140: dd65 81bd f3d8 0d3e 9666 a83d cff1 89bd
00000150: 86b8 f2bd bac6 febd 33e2 19be 2e85 e9bd
00000160: fa0c d9bd 3b16 2d3d b175 63bc 780a 3e3e
00000170: 619f e7bd c1ba 453d 37a8 0bbe 779d 4ebd
00000180: 0eac 03bc c04b b5bd d0a7 513c 9708 e4bd
00000190: ecbf 203e 23b6 00be 510e 333d 08ef b43c
000001a0: b2de 0abd 1bfa 61bd f563 093d 7678 81bd
000001b0: 0c70 503d fe81 813d 9012 043d ed96 0ebc
000001c0: fb78 2dbd 7589 cabb 3fa6 123d c4c2 acbd
000001d0: 7f0e 00be d40d 03be da01 bebd ae14 a43d
000001e0: 519a 873d 6a9d e23d 526b 7d3d c50d dabc
000001f0: 025a d4bd d579 fa3d f6ca 9ebd d180 61bc
00000200: 9b8a 55bd 2882 df3d db25 3bbe 38e3 9bbb
00000210: 20b2 2f3d 5cc0 fabd aef2 06be c4b2 cd3d
00000220: 62ad 0b3e d3e4 67bd c51d 65bd e8fd 753d
00000230: 88ac b43b 9979 173e 47f2 253d b0f2 e6bd
00000240: 5656 30bd d054 80bc cac9 babd a0c2 923d
00000250: 98fb c53d 5222 6f3d 2789 2cbe 3f73 343e
00000260: c76b 543d 4fe8 e53d 5b41 89bd 1a84 22be
00000270: 87fe 873d 42ea d33d 1aed 6fbd 04e9 5b39
00000280: 6e34 c83c 26e4 c4bd 166e 3abe ade7 243e
00000290: e735 c93b dd02 223e b9ea bcbd bf8b ff3b
000002a0: d377 e2bd 306f d23d 4265 82be 1b35 b13d
000002b0: 7d70 7cbd 23f7 aa37 a3d6 08bc 96e0 72be
000002c0: 1f98 873c c327 5e3e 119d a03b fdc4 47bd
000002d0: a08c 8c3d f3dc 4f3e 11b2 26be 83c2 af3c
000002e0: b174 0bbc a6bc 50be dd0a 8bbd 19c7 c53c
000002f0: bdff 4e3c e77f 07bd 6dd7 cabd 0ed4 463d
00000300: 25cd 3abd 04df 923d 5754 1abd 3ebf 0f3e
00000310: 4394 66bc 56e1 5e3c 8da7 0ebe a9bc d2bd
00000320: 8f7c cbbc 0599 aa3d 8a46 293d 53df 5fbd
00000330: 3b7c dfbb e0be a1bd c153 02be 6e61 17be
00000340: 6345 abbd e2f8 21be 4160 273d 4997 193e
00000350: eff3 9eba 59ae cf3c 2fed 1ebd 8a92 04be
00000360: d4f2 973d ebe9 85bc c03b 243d bd51 10be
00000370: 6abf b03c 4395 73bb ab87 883d 5e54 49be
00000380: 43a2 563d d406 1dbe 3f17 473d f8fe 073e
00000390: 87d8 d5bd 6639 f73d e4d3 023e aca3 8a3d
000003a0: f840 ea3d ca12 ca3b 12e7 57be 0fd9 243e
000003b0: b666 743d f300 be3d 987d 253e da9c 303e
000003c0: 325b ec3a 50ee b1bd 7f71 18be 0f57 423d
000003d0: cc88 7d3d 8c12 90bc e7c1 13bd 3d98 9cb9
000003e0: 2565 7dbd 9e3c 103e 0f7a 47bd 99d0 14bd
000003f0: 1d35 593d f567 ecbd 3533 043e 135f 8dbc

_transform._transforms.1._transforms.0._transforms.0.autoregressive_net.blocks.0.linear.bias f4 [50]
-0.10259421 0.116630085 0.087441616 0.06832037 -0.027549691 -0.025334695 -0.11471593 -0.097746246
0.14433828 0.020697527 0.20666233 -0.06540173 0.13389115 0.17675631 0.079466365 -0.1448869
-0.10553606 0.24203645 0.01561543 0.39778313 0.051965274 0.10342917 -0.0049332073 -0.06076249
0.05295677 0.07139174 -0.009558072 0.06445183 0.12391404 0.2966648 -0.14852881 0.05073395
-0.06556061 0.16829905 0.119076 -0.008600332 0.0012649811 0.11322877 0.004227032 -0.06740966
0.10363979 -0.038871046 0.06783389 0.14272617 0.0065739844 -0.18618368 -0.113730915 0.013239232
0.07419191 0.16551612
00000000: ea1c d2bd c1db ee3d 9714 b33d 8deb 8b3d
00000010: e4af e1bc b58a cfbc 2ff0 eabd 2f2f c8bd
00000020: 6acd 133e dc8d a93c 4a9f 533e 58f1 85bd
00000030: c31a 093e 9bff 343e 43bf a23d 3b5d 14be
00000040: 4a23 d8bd 67d8 773e dcd7 7f3c 3baa cb3e
00000050: 8ad9 543d acd2 d33d bea6 a1bb 17e2 78bd
00000060: 33e9 583d d535 923d 7699 1cbc 52ff 833d
00000070: a5c6 fd3d 73e4 973e f017 18be 67ce 4f3d
00000080: a444 86bd 9656 2c3e 1ede f33d 68e8 0cbc
00000090: b9cd a53a 7ce4 e73d ea82 8a3b 130e 8abd
000000a0: 1941 d43d 3f37 1fbd 7fec 8a3d cf26 123e
000000b0: 946a d73b efa6 3ebe c1eb e8bd 5de9 583c
000000c0: eef1 973d 0f7d 293e

_transform._transforms.1._transforms.0._transforms.0.autoregressive_net.blocks.0.linear.mask f4 [50, 50]
1.0 0.0 0.0 0.0 0.0 1.0 0.0 0.0
0.0 0.0 1.0 0.0 0.0 0.0 0.0 1.0
0.0 0.0 0.0 0.0 1.0 0.0 0.0 0.0
0.0 1.0 0.0 0.0 0.0 0.0 1.0 0.0
0.0 0.0 0.0 1.0 0.0 0.0 0.0 0.0
1.0 0.0 0.0 0.0 0.0 1.0 0.0 0.0
0.0 0.0 1.0 1.0 0.0 0.0 0.0 1.0
1.0 0.0 0.0 0.0 1.0 1.0 0.0 0.0
0.0 1.0 1.0 0.0 0.0 0.0 1.0 1.0
0.0 0.0 0.0 1.0 1.0 0.0 0.0 0.0
1.0 1.0 0.0 0.0 0.0 1.0 1.0 0.0
0.0 0.0 1.0 1.0 0.0 0.0 0.0 1.0
1.0 0.0 0.0 0.0 1.0 1.0 1.0 0.0
0.0 1.0 1.0 1.0 0.0 0.0 1.0 1.0
1.0 0.0 0.0 1.0 1.0 1.0 0.0 0.0
1.0 1.0 1.0 0.0 0.0 1.0 1.0 1.0
0.0 0.0 1.0 1.0 1.0 0.0 0.0 1.0
1.0 1.0 0.0 0.0 1.0 1.0 1.0 0.0
0.0 1.0 1.0 1.0 0.0 0.0 1.0 1.0
1.0 1.0 0.0 1.0 1.0 1.0 1.0 0.0
1.0 1.0 1.0 1.0 0.0 1.0 1.0 1.0
1.0 0.0 1.0 1.0 1.0 1.0 0.0 1.0
1.0 1.0 1.0 0.0 1.0 1.0 1.0 1.0
0.0 1.0 1.0 1.0 1.0 0.0 1.0 1.0
1.0 1.0 0.0 1.0 1.0 1.0 1.0 0.0
1.0 1.0 1.0 1.0 1.0 1.0 1.0 1.0
1.0 1.0 1.0 1.0 1.0 1.0 1.0 1.0
1.0 1.0 1.0 1.0 1.0 1.0 1.0 1.0
1.0 1.0 1.0 1.0 1.0 1.0 1.0 1.0
1.0 1.0 1.0 1.0 1.0 1.0 1.0 1.0
1.0 1.0 1.0 1.0 1.0 1.0 1.0 1.0
1.0 1.0 1.0 0.0 0.0 0.0 0.0 1.0
00000000: 0000 803f 0000 0000 0000 0000 0000 0000
00000010: 0000 0000 0000 803f 0000 0000 0000 0000
00000020: 0000 0000 0000 0000 0000 803f 0000 0000
00000030: 0000 0000 0000 0000 0000 0000 0000 803f
00000040: 0000 0000 0000 0000 0000 0000 0000 0000
00000050: 0000 803f 0000 0000 0000 0000 0000 0000
00000060: 0000 0000 0000 803f 0000 0000 0000 0000
00000070: 0000 0000 0000 0000 0000 803f 0000 0000
00000080: 0000 0000 0000 0000 0000 0000 0000 803f
00000090: 0000 0000 0000 0000 0000 0000 0000 0000
000000a0: 0000 803f 0000 0000 0000 0000 0000 0000
000000b0: 0000 0000 0000 803f 0000 0000 0000 0000
000000c0: 0000 0000 0000 0000 0000 803f 0000 803f
000000d0: 0000 0000 0000 0000 0000 0000 0000 803f
000000e0: 0000 803f 0000 0000 0000 0000 0000 0000
000000f0: 0000 803f 0000 803f 0000 0000 0000 0000
00000100: 0000 0000 0000 803f 0000 803f 0000 0000
00000110: 0000 0000 0000 0000 0000 803f 0000 803f
00000120: 0000 0000 0000 0000 0000 0000 0000 803f
00000130: 0000 803f 0000 0000 0000 0000 0000 0000
00000140: 0000 803f 0000 803f 0000 0000 0000 0000
00000150: 0000 0000 0000 803f 0000 803f 0000 0000
00000160: 0000 0000 0000 0000 0000 803f 0000 803f
00000170: 0000 0000 0000 0000 0000 0000 0000 803f
00000180: 0000 803f 0000 0000 0000 0000 0000 0000
00000190: 0000 803f 0000 803f 0000 803f 0000 0000
000001a0: 0000 0000 0000 803f 0000 803f 0000 803f
000001b0: 0000 0000 0000 0000 0000 803f 0000 803f
000001c0: 0000 803f 0000 0000 0000 0000 0000 803f
000001d0: 0000 803f 0000 803f 0000 0000 0000 0000
000001e0: 0000 803f 0000 803f 0000 803f 0000 0000
000001f0: 0000 0000 0000 803f 0000 803f 0000 803f
00000200: 0000 0000 0000 0000 0000 803f 0000 803f
00000210: 0000 803f 0000 0000 0000 0000 0000 803f
00000220: 0000 803f 0000 803f 0000 0000 0000 0000
00000230: 0000 803f 0000 803f 0000 803f 0000 0000
00000240: 0000 0000 0000 803f 0000 803f 0000 803f
00000250: 0000 0000 0000 0000 0000 803f 0000 803f
00000260: 0000 803f 0000 803f 0000 0000 0000 803f
00000270: 0000 803f 0000 803f 0000 803f 0000 0000
00000280: 0000 803f 0000 803f 0000 803f 0000 803f
00000290: 0000 0000 0000 803f 0000 803f 0000 803f
000002a0: 0000 803f 0000 0000 0000 803f 0000 803f
000002b0: 0000 803f 0000 803f 0000 0000 0000 803f
000002c0: 0000 803f 0000 803f 0000 803f 0000 0000
000002d0: 0000 803f 0000 803f 0000 803f 0000 803f
000002e0: 0000 0000 0000 803f 0000 803f 0000 803f
000002f0: 0000 803f 0000 0000 0000 803f 0000 803f
00000300: 0000 803f 0000 803f 0000 0000 0000 803f
00000310: 0000 803f 0000 803f 0000 803f 0000 0000
00000320: 0000 803f 0000 803f 0000 803f 0000 803f
00000330: 0000 803f 0000 803f 0000 803f 0000 803f
00000340: 0000 803f 0000 803f 0000 803f 0000 803f
00000350: 0000 803f 0000 803f 0000 803f 0000 803f
00000360: 0000 803f 0000 803f 0000 803f 0000 803f
00000370: 0000 803f 0000 803f 0000 803f 0000 803f
00000380: 0000 803f 0000 803f 0000 803f 0000 803f
00000390: 0000 803f 0000 803f 0000 803f 0000 803f
000003a0: 0000 803f 0000 803f 0000 803f 0000 803f
000003b0: 0000 803f 0000 803f 0000 803f 0000 803f
000003c0: 0000 803f 0000 803f 0000 803f 0000 803f
000003d0: 0000 803f 0000 803f 0000 803f 0000 803f
000003e0: 0000 803f 0000 803f 0000 803f 0000 0000
000003f0: 0000 0000 0000 0000 0000 0000 0000 803f

_transform._transforms.1._transforms.0._transforms.0.autoregressive_net.blocks.1.linear.weight f4 [50, 50]
0.046671633 -0.022239275 -0.091663435 -0.075257234 -0.10735969 0.16408145 0.01945578 -0.059059825
-0.11735809 0.040756576 0.10045097 0.07213955 -0.058131583 -0.059086394 -0.10008732 -0.03456742
-0.05600819 0.08433841 -0.09750666 -0.031682882 0.013708771 -0.022256756 -0.09909578 0.05029662
-0.09918142 0.01225487 0.11899018 -0.13926712 0.016589034 0.102006525 -0.24109711 -0.084779635
-0.1389337 -0.0039010618 0.0685267 0.004938608 -0.13750735 0.14120354 0.07811572 0.05780712
-0.03694251 0.045122858 0.09487239 0.08025329 -0.06674325 -0.17591456 0.10973248 0.075236075
0.025300283 0.09733616 0.03881348 -0.21274298 0.0054206583 0.06373084 0.008039967 -0.08431539
0.110541746 -0.051927973 0.018307934 -0.09254712 0.05707631 0.18844214 0.081040524 0.12454858
-0.046836413 -0.16743283 0.010723575 0.10308693 0.099393785 0.122712865 -0.22852467 -0.14123787
0.10512288 -0.09301046 0.12196786 0.19784978 -0.13088751 0.0039824727 0.12750082 -0.09338269
0.14606148 -0.010759541 0.04791492 0.12340965 0.018806549 0.0028570753 0.10205498 0.014080437
0.13205305 -0.13285628 0.019557493 0.07554169 -0.12275289 0.09639927 -0.12684076 0.107545674
0.031103382 0.016197119 0.09505957 0.047937844 0.14683586 0.03319747 -0.017653234 -0.024350764
-0.098281786 0.05225262 -0.027117755 0.0017245618 -0.114101455 -0.023249753 -0.06217371 -0.24003467
-0.15210073 0.030115847 -0.05414343 0.10134309 -0.0082267495 -0.1579003 -0.09170667 -0.009278157
0.1741298 0.026295103 -0.2052693 0.006998805 0.020536121 -0.108038336 -0.14207534 -0.049938116
-0.00066379603 0.015855746 -0.036899637 0.103076465 -0.14921603 -0.04043985 0.008320226 -0.12038269
0.06953254 0.13244015 0.04590227 0.039098654 -0.089327194 0.13230483 0.121552244 0.13005982
0.061580647 -0.06535161 -0.07346782 0.09272369 -0.11086628 0.1206929 -0.09871396 -0.09499641
0.06220725 0.03082231 0.068520375 0.11074308 -0.027251555 0.019990938 -0.0170584 -0.109336905
0.06651608 -0.13495642 -0.04267552 0.02927736 0.08858353 0.0010540688 0.10164442 -0.16934608
-0.026885342 -0.07027308 -0.14726725 -0.05133997 -0.10881921 -0.12052935 -0.017728684 0.09229989
-0.084648825 0.011138226 -0.16136621 -0.017960306 0.20718728 0.04679732 0.0012619086 -0.351465
0.042262282 -0.060662776 0.04293041 -0.2119344 0.08813791 -0.06963081 0.12232363 -0.054197244
-0.01153315 -0.13419326 0.116767175 0.24363756 0.086671256 -0.027632877 0.0039316555 -0.00041853508
0.14666003 -0.08813241 0.079196714 -0.058377825 -0.040119585 0.040463023 -0.12393966 0.03257069
-0.16852163 -0.0048757456 -0.1645934 0.15930861 -0.06521305 -0.09264003 0.04030733 -0.050953858
0.018071707 -0.14855373 -0.025347624 -0.0075957067 -0.06373482 -0.07350851 0.0594705 -0.05724441
0.09663205 -0.09405335 0.03697934 0.07546522 -0.08766712 -0.12652476 0.122849315 0.11332293
0.08901665 -0.1019915 0.043062676 0.13661402 -0.047671672 0.0410715 0.020093767 0.07416015
-0.11644493 0.052464828 0.09309243 0.080554314 -0.1771726 0.037122875 0.021502638 -0.06041325
0.0076989615 -0.03410733 0.15700218 -0.09979548 0.09429449 0.00080345385 -0.06821299 -0.0026182767
00000000: c12a 3f3d 242f b6bc 0aba bbbd 7720 9abd
00000010: 66df dbbd f804 283e ba61 9f3c b7e8 71bd
00000020: 7059 f0bd 5ef0 263d 3db9 cd3d e6bd 933d
00000030: 621b 6ebd 9304 72bd 95fa ccbd 9196 0dbd
00000040: d868 65bd 9eb9 ac3d 92b1 c7bd e9c5 01bd
00000050: c19a 603c cd53 b6bc baf2 cabd d403 4e3d
00000060: a11f cbbd a6c8 483c 20b1 f33d 0a9c 0ebe
00000070: bae5 873c cce8 d03d 29e2 76be f2a0 adbd
00000080: a344 0ebe f5a8 7fbb ba57 8c3d 0cd4 a13b
00000090: bace 0cbe a997 103e 22fb 9f3d 29c7 6c3d
000000a0: 0851 17bd bfd2 383d 754c c23d d65b a43d
000000b0: afb0 88bd f222 34be 6cbb e03d 5f15 9a3d
000000c0: 8a42 cf3c 2e58 c73d e2fa 1e3d 4cd9 59be
000000d0: c79f b13b 5185 823d 11ba 033c 8cad acbd
000000e0: b663 e23d 6db2 54bd 85fa 953c 5889 bdbd
000000f0: d9c8 693d faf6 403e 93f8 a53d 5313 ff3d
00000100: 8ad7 3fbd 8373 2bbe efb1 2f3c 3e1f d33d
00000110: f88e cb3d e250 fb3d 5f02 6abe a9a0 10be
00000120: aa4a d73d 457c bebd 49ca f93d 2299 4a3e
00000130: 6007 06be 677f 823b 938f 023e 6c3f bfbd
00000140: 2491 153e c948 30bc 6f42 443d 33be fc3d
00000150: 3110 9a3c c53d 3b3b 3402 d13d a2b1 663c
00000160: ea38 073e 7a0b 08be 0937 a03c 9ab5 9a3d
00000170: de65 fbbd fb6c c53d 8be2 01be e840 dc3d
00000180: 85cc fe3c d2af 843c 98ae c23d 795a 443d
00000190: 245c 163e 12fa 073d 849d 90bc 417b c7bc
000001a0: f647 c9bd d806 563d 0e26 debc b10a e23a
000001b0: 06ae e9bd 4476 bebc dca9 7ebd a6cb 75be
000001c0: 4bc0 1bbe 82b5 f63c 80c5 5dbd f78c cf3d
000001d0: 7dc9 06bc 9eb0 21be b5d0 bbbd 6903 18bc
000001e0: 154f 323e d468 d73c 1e32 52be 3b56 e53b
000001f0: 5e3b a83c 3443 ddbd 337c 11be e98b 4cbd
00000200: 9902 2eba e9e3 813c 1324 17bd c119 d33d
00000210: 16cc 18be 42a4 25bd 8f51 083c 338b f6bd
00000220: 1467 8e3d 649e 073e 0504 3c3d e925 203d
00000230: 2df1 b6bd eb7a 073e 62f0 f83d 672e 053e
00000240: fd3b 7c3d 11d7 85bd 4c76 96bd ebe5 bd3d
00000250: dc0d e3bd d72d f73d 8b2a cabd 7a8d c2bd
00000260: 08cd 7e3d 127f fc3c 6954 8c3d 45cd e23d
00000270: a73e dfbc 09c4 a33c 0fbe 8bbc 07ec dfbd
00000280: 9539 883d 0432 0abe 87cc 2ebd 13d7 ef3c
00000290: 486b b53d ae28 8a3a f32a d03d 0f69 2dbe
000002a0: a63e dcbc 55eb 8fbd 3acd 16be dc49 52bd
000002b0: 9bdc debd 18d8 f6bd bf3b 91bc ba07 bd3d
000002c0: 5d5c adbd 1b7d 363c 2f3d 25be 7e21 93bc
000002d0: e728 543e 8cae 3f3d a066 a53a 38f3 b3be
000002e0: 371b 2d3d 8879 78bd ccd7 2f3d 5505 59be
000002f0: a681 b43d 999a 8ebd d084 fa3d eefd 5dbd
00000300: 8af5 3cbc f569 09be a123 ef3d 207c 793e
00000310: b380 b13d 585e e2bc 1ed5 803b d46e dbb9
00000320: 0c2e 163e c47e b4bd e331 a23d 961d 6fbd
00000330: 6f54 24bd 8ebc 253d 14d4 fdbd d868 053d
00000340: ef90 2cbe b8c4 9fbb 2c8b 28be cc21 233e
00000350: 6b8e 85bd 0eba bdbd 4d19 253d feb4 50bd
00000360: 1e0b 943c 781e 18be d2a5 cfbc 68e5 f8bb
00000370: 6787 82bd a18b 96bd 5797 733d 1d79 6abd
00000380: 06e7 c53d 0b9f c0bd a677 173d 828d 9a3d
00000390: d28a b3bd b58f 01be 6c98 fb3d da15 e83d
000003a0: 5d4e b63d ebe0 d0bd 7d62 303d 8ce4 0b3e
000003b0: 5f43 43bd 973a 283d af9b a43c 47e1 973d
000003c0: ae7a eebd 5ce5 563d 3ea7 be3d a9f9 a43d
000003d0: bc6c 35be 280e 183d 4d26 b03c e273 77bd
000003e0: 9247 fc3b 21b4 0bbd 2ec5 203e 9361 ccbd
000003f0: 781d c13d e09e 523a 41b3 8bbd 6597 2bbb

_transform._transforms.1._transforms.0._transforms.0.autoregressive_net.blocks.1.linear.bias f4 [50]
0.16576867 0.15304582 0.019387688 0.013127771 -0.029767819 0.09704363 0.0026700913 -0.05585899
0.09304778 0.024709368 0.03216814 -0.019433528 0.12472902 -0.06598409 -0.017942168 -0.1324524
0.058492716 -0.2051658 -0.16848949 -0.18594423 -0.0072065634 -0.06865523 -0.02339096 0.12954283
0.25114134 -0.13015223 -0.049606528 0.06508504 0.060081996 -0.015288898 -0.008100293 -0.1223018
0.10136307 0.015969938 -0.053988773 -0.09002976 -0.059571404 -0.037274897 0.2601034 -0.24528852
0.1615406 -0.15145865 0.0014588244 -0.03248406 0.08869655 0.12821363 0.17659917 0.20414512
0.013893423 -0.15290327
00000000: 43bf 293e 0bb8 1c3e eed2 9e3c dd15 573c
00000010: a4db f3bc d0be c63d b3fc 2e3b 65cc 64bd
00000020: d68f be3d 4d6b ca3c bdc2 033d 1033 9fbc
00000030: ee71 ff3d ab22 87bd 74fb 92bc 9aa1 07be
00000040: 0f96 6f3d fc16 52be 8288 2cbe 2a68 3ebe
00000050: 0925 ecbb 1d9b 8cbd 669e bfbc e0a6 043e
00000060: 9995 803e a046 05be 3730 4bbd 4e4b 853d
00000070: 8a18 763d 497e 7abc 17b7 04bc 5e79 fabd
00000080: 7197 cf3d 63d3 823c 5523 5dbd 8661 b8bd
00000090: 2501 74bd 90ad 18bd 462c 853e ea2c 7bbe
000000a0: e66a 253e fa17 1bbe 0636 bf3a 010e 05bd
000000b0: 89a6 b53d 6f4a 033e 6ad6 343e 6b0b 513e
000000c0: 3da1 633c ad92 1cbe

_transform._transforms.1._transforms.0._transforms.0.autoregressive_net.blocks.1.linear.mask f4 [50, 50]
1.0 0.0 0.0 0.0 0.0 1.0 0.0 0.0
0.0 0.0 1.0 0.0 0.0 0.0 0.0 1.0
0.0 0.0 0.0 0.0 1.0 0.0 0.0 0.0
0.0 1.0 0.0 0.0 0.0 0.0 1.0 0.0
0.0 0.0 0.0 1.0 0.0 0.0 0.0 0.0
1.0 0.0 0.0 0.0 0.0 1.0 0.0 0.0
0.0 0.0 1.0 1.0 0.0 0.0 0.0 1.0
1.0 0.0 0.0 0.0 1.0 1.0 0.0 0.0
0.0 1.0 1.0 0.0 0.0 0.0 1.0 1.0
0.0 0.0 0.0 1.0 1.0 0.0 0.0 0.0
1.0 1.0 0.0 0.0 0.0 1.0 1.0 0.0
0.0 0.0 1.0 1.0 0.0 0.0 0.0 1.0
1.0 0.0 0.0 0.0 1.0 1.0 1.0 0.0
0.0 1.0 1.0 1.0 0.0 0.0 1.0 1.0
1.0 0.0 0.0 1.0 1.0 1.0 0.0 0.0
1.0 1.0 1.0 0.0 0.0 1.0 1.0 1.0
0.0 0.0 1.0 1.0 1.0 0.0 0.0 1.0
1.0 1.0 0.0 0.0 1.0 1.0 1.0 0.0
0.0 1.0 1.0 1.0 0.0 0.0 1.0 1.0
1.0 1.0 0.0 1.0 1.0 1.0 1.0 0.0
1.0 1.0 1.0 1.0 0.0 1.0 1.0 1.0
1.0 0.0 1.0 1.0 1.0 1.0 0.0 1.0
1.0 1.0 1.0 0.0 1.0 1.0 1.0 1.0
0.0 1.0 1.0 1.0 1.0 0.0 1.0 1.0
1.0 1.0 0.0 1.0 1.0 1.0 1.0 0.0
1.0 1.0 1.0 1.0 1.0 1.0 1.0 1.0
1.0 1.0 1.0 1.0 1.0 1.0 1.0 1.0
1.0 1.0 1.0 1.0 1.0 1.0 1.0 1.0
1.0 1.0 1.0 1.0 1.0 1.0 1.0 1.0
1.0 1.0 1.0 1.0 1.0 1.0 1.0 1.0
1.0 1.0 1.0 1.0 1.0 1.0 1.0 1.0
1.0 1.0 1.0 0.0 0.0 0.0 0.0 1.0
00000000: 0000 803f 0000 0000 0000 0000 0000 0000
00000010: 0000 0000 0000 803f 0000 0000 0000 0000
00000020: 0000 0000 0000 0000 0000 803f 0000 0000
00000030: 0000 0000 0000 0000 0000 0000 0000 803f
00000040: 0000 0000 0000 0000 0000 0000 0000 0000
00000050: 0000 803f 0000 0000 0000 0000 0000 0000
00000060: 0000 0000 0000 803f 0000 0000 0000 0000
00000070: 0000 0000 0000 0000 0000 803f 0000 0000
00000080: 0000 0000 0000 0000 0000 0000 0000 803f
00000090: 0000 0000 0000 0000 0000 0000 0000 0000
000000a0: 0000 803f 0000 0000 0000 0000 0000 0000
000000b0: 0000 0000 0000 803f 0000 0000 0000 0000
000000c0: 0000 0000 0000 0000 0000 803f 0000 803f
000000d0: 0000 0000 0000 0000 0000 0000 0000 803f
000000e0: 0000 803f 0000 0000 0000 0000 0000 0000
000000f0: 0000 803f 0000 803f 0000 0000 0000 0000
00000100: 0000 0000 0000 803f 0000 803f 0000 0000
00000110: 0000 0000 0000 0000 0000 803f 0000 803f
00000120: 0000 0000 0000 0000 0000 0000 0000 803f
00000130: 0000 803f 0000 0000 0000 0000 0000 0000
00000140: 0000 803f 0000 803f 0000 0000 0000 0000
00000150: 0000 0000 0000 803f 0000 803f 0000 0000
00000160: 0000 0000 0000 0000 0000 803f 0000 803f
00000170: 0000 0000 0000 0000 0000 0000 0000 803f
00000180: 0000 803f 0000 0000 0000 0000 0000 0000
00000190: 0000 803f 0000 803f 0000 803f 0000 0000
000001a0: 0000 0000 0000 803f 0000 803f 0000 803f
000001b0: 0000 0000 0000 0000 0000 803f 0000 803f
000001c0: 0000 803f 0000 0000 0000 0000 0000 803f
000001d0: 0000 803f 0000 803f 0000 0000 0000 0000
000001e0: 0000 803f 0000 803f 0000 803f 0000 0000
000001f0: 0000 0000 0000 803f 0000 803f 0000 803f
00000200: 0000 0000 0000 0000 0000 803f 0000 803f
00000210: 0000 803f 0000 0000 0000 0000 0000 803f
00000220: 0000 803f 0000 803f 0000 0000 0000 0000
00000230: 0000 803f 0000 803f 0000 803f 0000 0000
00000240: 0000 0000 0000 803f 0000 803f 0000 803f
00000250: 0000 0000 0000 0000 0000 803f 0000 803f
00000260: 0000 803f 0000 803f 0000 0000 0000 803f
00000270: 0000 803f 0000 803f 0000 803f 0000 0000
00000280: 0000 803f 0000 803f 0000 803f 0000 803f
00000290: 0000 0000 0000 803f 0000 803f 0000 803f
000002a0: 0000 803f 0000 0000 0000 803f 0000 803f
000002b0: 0000 803f 0000 803f 0000 0000 0000 803f
000002c0: 0000 803f 0000 803f 0000 803f 0000 0000
000002d0: 0000 803f 0000 803f 0000 803f 0000 803f
000002e0: 0000 0000 0000 803f 0000 803f 0000 803f
000002f0: 0000 803f 0000 0000 0000 803f 0000 803f
00000300: 0000 803f 0000 803f 0000 0000 0000 803f
00000310: 0000 803f 0000 803f 0000 803f 0000 0000
00000320: 0000 803f 0000 803f 0000 803f 0000 803f
00000330: 0000 803f 0000 803f 0000 803f 0000 803f
00000340: 0000 803f 0000 803f 0000 803f 0000 803f
00000350: 0000 803f 0000 803f 0000 803f 0000 803f
00000360: 0000 803f 0000 803f 0000 803f 0000 803f
00000370: 0000 803f 0000 803f 0000 803f 0000 803f
00000380: 0000 803f 0000 803f 0000 803f 0000 803f
00000390: 0000 803f 0000 803f 0000 803f 0000 803f
000003a0: 0000 803f 0000 803f 0000 803f 0000 803f
000003b0: 0000 803f 0000 803f 0000 803f 0000 803f
000003c0: 0000 803f 0000 803f 0000 803f 0000 803f
000003d0: 0000 803f 0000 803f 0000 803f 0000 803f
000003e0: 0000 803f 0000 803f 0000 803f 0000 0000
000003f0: 0000 0000 0000 0000 0000 0000 0000 803f

_transform._transforms.1._transforms.0._transforms.0.autoregressive_net.final_layer.weight f4 [12, 50]
-0.015820764 0.1340245 0.13989423 -0.099488415 -0.102237776 0.021647144 0.11488862 -0.10870848
-0.035766896 -0.02297499 -0.022143247 -0.07313392 -0.03504401 0.036372732 -0.063852444 0.002389406
0.12980507 0.103991084 0.064994305 -0.11818948 0.06264578 -0.11366402 0.0073703546 0.0077003306
0.028999275 0.097655565 0.050666295 -0.06652931 0.05996519 -0.0146869635 -0.11341662 0.122206464
-0.044584118 0.08520446 -0.05279827 -0.1268 -0.033055402 0.09059853 0.109458335 0.019090332
-0.059305508 0.06981784 0.122663826 0.027426708 0.13938098 -0.05523284 -0.024732143 -0.13861968
-0.11049367 0.05883916 0.12091714 0.005407795 -0.052800443 -0.056494784 0.02428102 0.09681885
-0.12553236 0.04694702 -0.13936386 0.0107916845 0.034111165 -0.1383857 -0.03781596 0.11586481
0.0795456 0.066072285 0.033064913 -0.046745542 -0.046320196 -0.024307825 -0.0648504 -0.117208354
-0.057080105 -0.016535053 0.08281103 0.13975473 0.10430454 -0.025957031 0.11257884 0.09973949
0.057946745 0.03737276 -0.114160255 0.13497485 -0.12430946 -0.10566925 0.045418102 -0.05160258
0.02100245 0.02226244 0.117683366 -0.05114525 0.14065892 0.01843365 0.06895086 0.019151343
-0.13252704 0.047616955 0.035627965 0.12651305 -0.10517372 -0.080839835 -0.048864655 -0.05346989
-0.068351805 -0.040692225 -0.003380936 0.14133207 -0.022398572 0.12828 0.042410627 -0.018025685
0.00083986874 0.13217634 0.10769822 0.027621163 -0.028686056 -0.0020748388 -0.061917264 -0.020707423
0.10281048 0.07877575 -0.086712524 0.11932218 -0.106256574 0.023008322 -0.13680355 -0.052144065
0.11104964 0.02330532 0.018933453 0.09637643 -0.06274655 0.028929092 0.13927174 0.022579407
-0.0144639565 0.08651514 0.039553944 0.081687994 0.059876278 0.12425886 -0.034994278 0.11438734
0.054715462 -0.19234543 -0.0092862155 0.04305122 0.101773754 -0.105990194 0.32164922 0.030997423
-0.035754304 0.0797249 0.14074 0.2423624 0.06797297 -0.072098 -0.040098663 0.07502785
0.079637036 0.050149895 -0.0763126 -0.022691494 -0.07453927 -0.09856091 -0.012821173 -0.06619418
0.010711015 0.0052960888 -0.10053449 0.08926265 -0.030604683 0.13376527 0.13932565 -0.24860182
0.07302729 0.13855822 0.08660406 -0.11584778 -0.08507424 0.02665999 0.05681645 0.05115933
0.12494882 -0.12391028 -0.06256592 -0.02980207 -0.044284977 0.026778946 -0.018590204 -0.045081824
0.119082995 0.1052728 0.05638006 0.2252243 -0.035896674 0.0058159786 -0.11940744 -0.019080266
-0.054758474 -0.058092184 0.108406626 -0.07961907 0.11363077 0.103820056 0.12245811 -0.107900284
-0.07687825 0.10216626 0.12632486 -0.07858403 0.098901935 0.108862534 0.010302393 -0.047072403
0.0718433 0.13532096 0.11247152 0.049437396 -0.02413699 0.045952294 -0.066314094 0.09832316
-0.038468897 -0.008479942 0.035431378 -0.1134647 -0.13303809 -0.0127708325 -0.13171934 0.2047382
-0.05856347 -0.12519193 0.10933748 -0.0074693174 0.0123457825 -0.01536809 -0.12085395 -0.028087707
-0.18010853 -0.050112255 0.09696453 0.06386239 -0.02187585 -0.08008668 -0.2072427 0.13743016
0.037294805 -0.10478862 -0.2890434 0.40530473 -0.03983078 0.10606204 0.024555463 -0.3782789
00000000: 8c9a 81bc b83d 093e 6f40 0f3e 95c0 cbbd
00000010: 0a62 d1bd 5a55 b13c ba4a eb3d 8da2 debd
00000020: 4f80 12bd 0c36 bcbc c165 b5bc 3dc7 95bd
00000030: 4f8a 0fbd 93fb 143d 12c5 82bd 9597 1c3b
00000040: 9feb 043e 47f9 d43d bc1b 853d 530d f2bd
00000050: 6e4c 803d afc8 e8bd 0483 f13b 0e53 fc3b
00000060: e38f ed3c a4ff c73d 7687 4f3d 8540 88bd
00000070: 0f9e 753d 97a1 70bc f946 e8bd 6247 fa3d
00000080: d69d 36bd ad7f ae3d 0043 58bd dcd7 01be
00000090: 1a65 07bd b98b b93d b12b e03d 5463 9c3c
000000a0: 55ea 72bd a8fc 8e3d 2c37 fb3d faad e03c
000000b0: e3b9 0e3e d53b 62bd 109b cabc 51f2 0dbe
000000c0: 814a e2bd 5501 713d 68a3 f73d df33 b13b
000000d0: 4745 58bd 1367 67bd fde8 c63c f648 c63d
000000e0: 8e8b 00be 854b 403d 66b5 0ebe 9bcf 303c
000000f0: 26b8 0b3d fbb4 0dbe e8e4 1abd 884a ed3d
00000100: cee8 a23d e850 873d 136f 073d 4178 3fbd
00000110: 3fba 3dbd 3421 c7bc 49d0 84bd ef0a f0bd
00000120: d4cc 69bd 8574 87bc d498 a93d dd1b 0f3e
00000130: 9e9d d53d d7a3 d4bc bc8f e63d 3844 cc3d
00000140: 9159 6d3d 2e14 193d dacc e9bd d936 0a3e
00000150: f595 febd 1f69 d8bd 5508 3a3d 3a5d 53bd
00000160: 540d ac3c b85f b63c fa03 f13d af7d 51bd
00000170: e408 103e 2a02 973c 1c36 8d3d 47e3 9c3c
00000180: 2bb5 07be ff09 433d a1ee 113d a38c 013e
00000190: 5265 d7bd 5b8f a5bd 4e26 48bd 3e03 5bbd
000001a0: 08fc 8bbd e4ac 26bd b292 5dbb 5bb9 103e
000001b0: 367d b7bc d55b 033e c4b6 2d3d 9aaa 93bc
000001c0: a32a 5c3a 3c59 073e e290 dc3d c745 e23c
000001d0: 05ff eabc 05fa 07bb f59c 7dbd 9da2 a9bc
000001e0: 4d8e d23d 2e55 a13d 5696 b1bd 305f f43d
000001f0: 0c9d d9bd f37b bc3c 3b16 0cbe 0495 55bd
00000200: fe6d e33d ccea be3c 541a 9b3c 0161 c53d
00000210: 4381 80bd b4fc ec3c 409d 0e3e 73f8 b83c
00000220: 3bfa 6cbc da2e b13d 5103 223d 094c a73d
00000230: d440 753d 6e7b fe3d 2956 0fbd e943 ea3d
00000240: 521d 603d 33f6 44be 3625 18bc 7a56 303d
00000250: c26e d03d 6311 d9bd 35af a43e 4fee fd3c
00000260: 1b73 12bd cf46 a33d 261e 103e d92d 783e
00000270: 6a35 8b3d 1ea8 93bd 7f3e 24bd 34a8 993d
00000280: be18 a33d fa69 4d3d c849 9cbd 83e3 b9bc
00000290: 0ba8 98bd 4dda c9bd e60f 52bc d090 87bd
000002a0: 417d 2f3c d08a ad3b 07e5 cdbd 56cf b63d
000002b0: acb6 fabc c3f9 083e 62ab 0e3e 7a91 7ebe
000002c0: 558f 953d 35e2 0d3e 785d b13d 9a41 edbd
000002d0: 673b aebd 0d66 da3c 5eb8 683d 728c 513d
000002e0: 2be5 ff3d acc4 fdbd 9022 80bd 7923 f4bc
000002f0: 2a64 35bd 855f db3c 7c4a 98bc b8a7 38bd
00000300: c9e1 f33d 4499 d73d c7ee 663d 33a1 663e
00000310: 6408 13bd f793 be3b e38b f4bd 384e 9cbc
00000320: 6c4a 60bd 12f2 6dbd 4b04 de3d 530f a3bd
00000330: 40b7 e83d 9c9f d43d 51cb fa3d d3fa dcbd
00000340: 5872 9dbd 8b3c d13d 4e5b 013e aaf0 a0bd
00000350: 198d ca3d 52f3 de3d 5ecb 283c fece 40bd
00000360: 9422 933d 9491 0a3e 7857 e63d de7e 4a3d
00000370: f0ba c5bc 7938 3c3d afcf 87bd a75d c93d
00000380: 9091 1dbd 74ef 0abc 7e20 113d 2e60 e8bd
00000390: 233b 08be c13c 51bc 6fe1 06be e4a6 513e
000003a0: 40e0 6fbd 5032 00be 54ec df3d 2dc1 f4bb
000003b0: f745 4a3c 71ca 7bbc 4782 f7bd 3118 e6bc
000003c0: 5f6e 38be 8242 4dbd 5795 c63d 49ca 823d
000003d0: fc34 b3bc 7c04 a4bd 6e37 54be 7eba 0c3e
000003e0: 70c2 183d 6a9b d6bd 7ffd 93be 1a84 cf3e
000003f0: 9a25 23bd 0e37 d93d 8a28 c93c c6ad c1be

_transform._transforms.1._transforms.0._transforms.0.autoregressive_net.final_layer.bias f4 [12]
-0.064124286 0.12594905 -0.043248005 0.0981333 -0.049481023 -0.023502033 -0.00056811096 -0.06747399
-0.13820817 0.23891507 -0.111208424 0.18510734
00000000: 9853 83bd caf8 003e d224 31bd 1dfa c83d
00000010: 9dac 4abd 5687 c0bc 48ed 14ba ce2f 8abd
00000020: 7186 0dbe 27a6 743e 3ec1 e3bd c78c 3d3e

_transform._transforms.1._transforms.0._transforms.0.autoregressive_net.final_layer.mask f4 [12, 50]
0.0 0.0 0.0 0.0 0.0 0.0 0.0 0.0
0.0 0.0 0.0 0.0 0.0 0.0 0.0 0.0
0.0 0.0 0.0 0.0 0.0 0.0 0.0 0.0
0.0 0.0 0.0 0.0 0.0 0.0 0.0 0.0
0.0 0.0 0.0 0.0 0.0 0.0 0.0 0.0
0.0 0.0 0.0 0.0 0.0 0.0 0.0 0.0
0.0 0.0 0.0 0.0 0.0 0.0 0.0 0.0
0.0 0.0 0.0 0.0 0.0 0.0 0.0 0.0
0.0 0.0 0.0 0.0 0.0 0.0 0.0 0.0
0.0 0.0 0.0 0.0 0.0 0.0 0.0 0.0
0.0 0.0 0.0 0.0 0.0 0.0 0.0 0.0
0.0 0.0 0.0 0.0 0.0 0.0 0.0 0.0
0.0 0.0 0.0 0.0 1.0 0.0 0.0 0.0
0.0 1.0 0.0 0.0 0.0 0.0 1.0 0.0
0.0 0.0 0.0 1.0 0.0 0.0 0.0 0.0
1.0 0.0 0.0 0.0 0.0 1.0 0.0 0.0
0.0 0.0 1.0 0.0 0.0 0.0 0.0 1.0
0.0 0.0 0.0 0.0 1.0 0.0 0.0 0.0
0.0 1.0 0.0 0.0 0.0 0.0 1.0 0.0
0.0 0.0 0.0 1.0 0.0 0.0 0.0 0.0
1.0 0.0 0.0 0.0 0.0 1.0 0.0 0.0
0.0 0.0 1.0 0.0 0.0 0.0 0.0 1.0
0.0 0.0 0.0 0.0 1.0 0.0 0.0 0.0
0.0 1.0 0.0 0.0 0.0 0.0 1.0 0.0
0.0 0.0 0.0 1.0 0.0 0.0 0.0 0.0
1.0 1.0 0.0 0.0 0.0 1.0 1.0 0.0
0.0 0.0 1.0 1.0 0.0 0.0 0.0 1.0
1.0 0.0 0.0 0.0 1.0 1.0 0.0 0.0
0.0 1.0 1.0 0.0 0.0 0.0 1.0 1.0
0.0 0.0 0.0 1.0 1.0 0.0 0.0 0.0
1.0 1.0 0.0 0.0 0.0 1.0 1.0 0.0
0.0 0.0 1.0 1.0 0.0 0.0 0.0 1.0
00000000: 0000 0000 0000 0000 0000 0000 0000 0000
00000010: 0000 0000 0000 0000 0000 0000 0000 0000
00000020: 0000 0000 0000 0000 0000 0000 0000 0000
00000030: 0000 0000 0000 0000 0000 0000 0000 0000
00000040: 0000 0000 0000 0000 0000 0000 0000 0000
00000050: 0000 0000 0000 0000 0000 0000 0000 0000
00000060: 0000 0000 0000 0000 0000 0000 0000 0000
00000070: 0000 0000 0000 0000 0000 0000 0000 0000
00000080: 0000 0000 0000 0000 0000 0000 0000 0000
00000090: 0000 0000 0000 0000 0000 0000 0000 0000
000000a0: 0000 0000 0000 0000 0000 0000 0000 0000
000000b0: 0000 0000 0000 0000 0000 0000 0000 0000
000000c0: 0000 0000 0000 0000 0000 0000 0000 0000
000000d0: 0000 0000 0000 0000 0000 0000 0000 0000
000000e0: 0000 0000 0000 0000 0000 0000 0000 0000
000000f0: 0000 0000 0000 0000 0000 0000 0000 0000
00000100: 0000 0000 0000 0000 0000 0000 0000 0000
00000110: 0000 0000 0000 0000 0000 0000 0000 0000
00000120: 0000 0000 0000 0000 0000 0000 0000 0000
00000130: 0000 0000 0000 0000 0000 0000 0000 0000
00000140: 0000 0000 0000 0000 0000 0000 0000 0000
00000150: 0000 0000 0000 0000 0000 0000 0000 0000
00000160: 0000 0000 0000 0000 0000 0000 0000 0000
00000170: 0000 0000 0000 0000 0000 0000 0000 0000
00000180: 0000 0000 0000 0000 0000 0000 0000 0000
00000190: 0000 803f 0000 0000 0000 0000 0000 0000
000001a0: 0000 0000 0000 803f 0000 0000 0000 0000
000001b0: 0000 0000 0000 0000 0000 803f 0000 0000
000001c0: 0000 0000 0000 0000 0000 0000 0000 803f
000001d0: 0000 0000 0000 0000 0000 0000 0000 0000
000001e0: 0000 803f 0000 0000 0000 0000 0000 0000
000001f0: 0000 0000 0000 803f 0000 0000 0000 0000
00000200: 0000 0000 0000 0000 0000 803f 0000 0000
00000210: 0000 0000 0000 0000 0000 0000 0000 803f
00000220: 0000 0000 0000 0000 0000 0000 0000 0000
00000230: 0000 803f 0000 0000 0000 0000 0000 0000
00000240: 0000 0000 0000 803f 0000 0000 0000 0000
00000250: 0000 0000 0000 0000 0000 803f 0000 0000
00000260: 0000 0000 0000 0000 0000 0000 0000 803f
00000270: 0000 0000 0000 0000 0000 0000 0000 0000
00000280: 0000 803f 0000 0000 0000 0000 0000 0000
00000290: 0000 0000 0000 803f 0000 0000 0000 0000
000002a0: 0000 0000 0000 0000 0000 803f 0000 0000
000002b0: 0000 0000 0000 0000 0000 0000 0000 803f
000002c0: 0000 0000 0000 0000 0000 0000 0000 0000
000002d0: 0000 803f 0000 0000 0000 0000 0000 0000
000002e0: 0000 0000 0000 803f 0000 0000 0000 0000
000002f0: 0000 0000 0000 0000 0000 803f 0000 0000
00000300: 0000 0000 0000 0000 0000 0000 0000 803f
00000310: 0000 0000 0000 0000 0000 0000 0000 0000
00000320: 0000 803f 0000 803f 0000 0000 0000 0000
00000330: 0000 0000 0000 803f 0000 803f 0000 0000
00000340: 0000 0000 0000 0000 0000 803f 0000 803f
00000350: 0000 0000 0000 0000 0000 0000 0000 803f
00000360: 0000 803f 0000 0000 0000 0000 0000 0000
00000370: 0000 803f 0000 803f 0000 0000 0000 0000
00000380: 0000 0000 0000 803f 0000 803f 0000 0000
00000390: 0000 0000 0000 0000 0000 803f 0000 803f
000003a0: 0000 0000 0000 0000 0000 0000 0000 803f
000003b0: 0000 803f 0000 0000 0000 0000 0000 0000
000003c0: 0000 803f 0000 803f 0000 0000 0000 0000
000003d0: 0000 0000 0000 803f 0000 803f 0000 0000
000003e0: 0000 0000 0000 0000 0000 803f 0000 803f
000003f0: 0000 0000 0000 0000 0000 0000 0000 803f
